…
2020-02-18 10:26:25.138114: I tensorflow/core/common_runtime/gpu/gpu_device.cc:1115] Created TensorFlow device (/job:localhost/replica:0/task:0/device:GPU:1 with 10749 MB memory) -> physical GPU (device: 1, name: Tesla K40m, pci bus id: 0000:24:00.0, compute capability: 3.5)
2020-02-18 10:26:25.138506: I tensorflow/core/common_runtime/gpu/gpu_device.cc:1115] Created TensorFlow device (/job:localhost/replica:0/task:0/device:GPU:2 with 10749 MB memory) -> physical GPU (device: 2, name: Tesla K40m, pci bus id: 0000:27:00.0, compute capability: 3.5)
_________________________________________________________________
Layer (type)                 Output Shape              Param #   
=================================================================
input_1 (InputLayer)         (None, 513)               0         
_________________________________________________________________
lambda_1 (Lambda)            (None, 1026)              0         
_________________________________________________________________
dense_1 (Dense)              (None, 400)               410800    
_________________________________________________________________
activation_1 (Activation)    (None, 400)               0         
_________________________________________________________________
batch_normalization_1 (Batch (None, 400)               1600      
_________________________________________________________________
dense_2 (Dense)              (None, 200)               80200     
_________________________________________________________________
activation_2 (Activation)    (None, 200)               0         
_________________________________________________________________
batch_normalization_2 (Batch (None, 200)               800       
_________________________________________________________________
dense_3 (Dense)              (None, 100)               20100     
_________________________________________________________________
activation_3 (Activation)    (None, 100)               0         
_________________________________________________________________
batch_normalization_3 (Batch (None, 100)               400       
_________________________________________________________________
dense_4 (Dense)              (None, 200)               20200     
_________________________________________________________________
activation_4 (Activation)    (None, 200)               0         
_________________________________________________________________
batch_normalization_4 (Batch (None, 200)               800       
_________________________________________________________________
dense_5 (Dense)              (None, 400)               80400     
_________________________________________________________________
activation_5 (Activation)    (None, 400)               0         
_________________________________________________________________
batch_normalization_5 (Batch (None, 400)               1600      
_________________________________________________________________
dense_6 (Dense)              (None, 1026)              411426    
_________________________________________________________________
activation_6 (Activation)    (None, 1026)              0         
_________________________________________________________________
batch_normalization_6 (Batch (None, 1026)              4104      
_________________________________________________________________
lambda_2 (Lambda)            (None, 513)               0         
=================================================================
Total params: 1,032,430
Trainable params: 1,027,778
Non-trainable params: 4,652
_________________________________________________________________
Train on 347484 samples, validate on 47722 samples
Epoch 1/10

  1024/347484 [..............................] - ETA: 9:12 - loss: 0.9173 - mean_absolute_error: 0.1478
  2048/347484 [..............................] - ETA: 3:11:15 - loss: 0.8584 - mean_absolute_error: 0.1474
…
